our_model.tar (torch, 2144 bytes, 3 tensors)

linear1.weight f4 [4, 2]
0	0x4001e3e3	2.029534
1	0xbf366e78	-0.7126231
2	0xc041157b	-3.016936
3	0x40686614	3.6312304
4	0xc0123258	-2.2843227
5	0xc012fef5	-2.2968113
6	0xc030accc	-2.7605467
7	0x3fef6327	1.8702134

linear1.bias f4 [4]
0	0xbe3544cf	-0.1770203
1	0x3fa44cb8	1.2835913
2	0x3f07a230	0.52981853
3	0xbf2660f7	-0.64991707

linear2.weight f4 [1, 4]
0	0xc001705f	-2.0224836
1	0xc09af315	-4.842173
2	0xc06da9d2	-3.71349
3	0x4056f8fd	3.358947
